…
[1716189467.723355] [compute-1-1:661775:0]           ib_md.c:1232 UCX  WARN  IB: ibv_fork_init() was disabled or failed, yet a fork() has been issued.
[1716189467.723371] [compute-1-1:661775:0]           ib_md.c:1233 UCX  WARN  IB: data corruption might occur when using registered memory.
[1716189467.729285] [compute-1-1:661776:0]           ib_md.c:1232 UCX  WARN  IB: ibv_fork_init() was disabled or failed, yet a fork() has been issued.
[1716189467.729303] [compute-1-1:661776:0]           ib_md.c:1233 UCX  WARN  IB: data corruption might occur when using registered memory.
cuda:0
cuda:0
Folder already there
Folder already there
FullyConnectedNetworkMod(
  (layers): ModuleList(
    (0): Linear(in_features=4, out_features=256, bias=True)
    (1): ReLU()
    (2): Linear(in_features=256, out_features=256, bias=True)
    (3): ReLU()
    (4): Linear(in_features=256, out_features=128, bias=True)
    (5): SiLU()
    (6): Linear(in_features=128, out_features=128, bias=True)
    (7): ELU(alpha=1.0)
    (8): Linear(in_features=128, out_features=2, bias=True)
  )
)
FullyConnectedNetworkMod(
  (layers): ModuleList(
    (0): Linear(in_features=4, out_features=256, bias=True)
    (1): ReLU()
    (2): Linear(in_features=256, out_features=128, bias=True)
    (3): SiLU()
    (4): Linear(in_features=128, out_features=128, bias=True)
    (5): SiLU()
    (6): Linear(in_features=128, out_features=128, bias=True)
    (7): SiLU()
    (8): Linear(in_features=128, out_features=2, bias=True)
  )
)
(2505000,)
(2505000,)
(2505000,)
(2505000,)
(2505000,)
(2505000,)
(2505000,)
(2505000,)
(26109114,)
(26109114,)
(26109114,)
(26109114,)
(26109114,)
(26109114,)
(26109114,)
(26109114,)
Iteration 0: total loss 2.3119, losses: [1.164306402206421, 1.147613525390625], learning rate: 0.0100000000
Iteration 0: total loss 2.3177, losses: [1.168155312538147, 1.1495178937911987], learning rate: 0.0100000000
…
Iteration 490000: total loss 0.0148, losses: [0.007366524077951908, 0.007461043540388346], learning rate: 0.0094148015
Val loss  tensor(0.8795)
Val loss  tensor(1.2634)
Iteration 460000: total loss 0.0414, losses: [0.02024139277637005, 0.021187646314501762], learning rate: 0.0096059601
Val loss  tensor(1.0442)
Val loss  tensor(1.2267)
Iteration 495000: total loss 0.0133, losses: [0.006650579161942005, 0.006685009691864252], learning rate: 0.0094148015
Iteration 465000: total loss 0.0469, losses: [0.02338915877044201, 0.023470038548111916], learning rate: 0.0096059601
FullyConnectedNetworkMod(
  (layers): ModuleList(
    (0): Linear(in_features=4, out_features=256, bias=True)
    (1): ReLU()
    (2): Linear(in_features=256, out_features=128, bias=True)
    (3): SiLU()
    (4): Linear(in_features=128, out_features=128, bias=True)
    (5): SiLU()
    (6): Linear(in_features=128, out_features=128, bias=True)
    (7): SiLU()
    (8): Linear(in_features=128, out_features=2, bias=True)
  )
)
cuda:0
Folder already there
FullyConnectedNetworkMod(
  (layers): ModuleList(
    (0): Linear(in_features=4, out_features=128, bias=True)
    (1): Tanh()
    (2): Linear(in_features=128, out_features=128, bias=True)
    (3): Tanh()
    (4): Linear(in_features=128, out_features=128, bias=True)
    (5): ELU(alpha=1.0)
    (6): Linear(in_features=128, out_features=128, bias=True)
    (7): ELU(alpha=1.0)
    (8): Linear(in_features=128, out_features=2, bias=True)
  )
)
Iteration 470000: total loss 0.0294, losses: [0.014705977402627468, 0.014701509848237038], learning rate: 0.0096059601
Val loss  tensor(1.2004)
Val loss  tensor(1.2111)
Iteration 475000: total loss 0.0291, losses: [0.014590069651603699, 0.014474347233772278], learning rate: 0.0096059601
(2505000,)
(2505000,)
(2505000,)
(2505000,)
(26109114,)
(26109114,)
…
Val loss  tensor(1.0060)
Iteration 15000: total loss 0.3005, losses: [0.1499192714691162, 0.1506069004535675], learning rate: 0.0100000000
Val loss  tensor(1.2161)
Iteration 20000: total loss 0.2660, losses: [0.13226987421512604, 0.1337113380432129], learning rate: 0.0100000000
Val loss  tensor(1.1570)
Val loss  tensor(1.2038)
Iteration 495000: total loss 0.0295, losses: [0.014176348224282265, 0.015320101752877235], learning rate: 0.0096059601
Iteration 25000: total loss 0.1526, losses: [0.07556777447462082, 0.07702149450778961], learning rate: 0.0100000000
FullyConnectedNetworkMod(
  (layers): ModuleList(
    (0): Linear(in_features=4, out_features=256, bias=True)
    (1): ReLU()
    (2): Linear(in_features=256, out_features=256, bias=True)
    (3): ReLU()
    (4): Linear(in_features=256, out_features=128, bias=True)
    (5): SiLU()
    (6): Linear(in_features=128, out_features=128, bias=True)
    (7): ELU(alpha=1.0)
    (8): Linear(in_features=128, out_features=2, bias=True)
  )
)
cuda:0
Folder already there
FullyConnectedNetworkMod(
  (layers): ModuleList(
    (0): Linear(in_features=4, out_features=128, bias=True)
    (1): Tanh()
    (2): Linear(in_features=128, out_features=128, bias=True)
    (3): Tanh()
    (4): Linear(in_features=128, out_features=128, bias=True)
    (5): Tanh()
    (6): Linear(in_features=128, out_features=128, bias=True)
    (7): ELU(alpha=1.0)
    (8): Linear(in_features=128, out_features=2, bias=True)
  )
)
Iteration 30000: total loss 0.2002, losses: [0.10031826794147491, 0.09992451965808868], learning rate: 0.0100000000
Val loss  tensor(1.1297)
Val loss  tensor(1.1561)
Iteration 35000: total loss 0.2051, losses: [0.10272544622421265, 0.1024109348654747], learning rate: 0.0100000000
(2505000,)
(2505000,)
(2505000,)
(2505000,)
(26109114,)
(26109114,)
(26109114,)
…
Val loss  tensor(1.2457)
Iteration 455000: total loss 0.0473, losses: [0.02397899143397808, 0.023310458287596703], learning rate: 0.0097029900
Iteration 495000: total loss 0.1301, losses: [0.06523444503545761, 0.06481998413801193], learning rate: 0.0095099005
Iteration 460000: total loss 0.0404, losses: [0.020294498652219772, 0.020144779235124588], learning rate: 0.0097029900
Val loss  tensor(1.2256)
Val loss  tensor(1.2923)
Iteration 465000: total loss 0.0471, losses: [0.023277172818779945, 0.02378421649336815], learning rate: 0.0097029900
FullyConnectedNetworkMod(
  (layers): ModuleList(
    (0): Linear(in_features=4, out_features=128, bias=True)
    (1): Tanh()
    (2): Linear(in_features=128, out_features=128, bias=True)
    (3): Tanh()
    (4): Linear(in_features=128, out_features=128, bias=True)
    (5): ELU(alpha=1.0)
    (6): Linear(in_features=128, out_features=128, bias=True)
    (7): ELU(alpha=1.0)
    (8): Linear(in_features=128, out_features=2, bias=True)
  )
)
cuda:0
Folder already there
FullyConnectedNetworkMod(
  (layers): ModuleList(
    (0): Linear(in_features=4, out_features=256, bias=True)
    (1): ReLU()
    (2): Linear(in_features=256, out_features=256, bias=True)
    (3): ReLU()
    (4): Linear(in_features=256, out_features=128, bias=True)
    (5): SiLU()
    (6): Linear(in_features=128, out_features=128, bias=True)
    (7): SiLU()
    (8): Linear(in_features=128, out_features=2, bias=True)
  )
)
Iteration 470000: total loss 0.0330, losses: [0.016168301925063133, 0.01679227314889431], learning rate: 0.0097029900
Val loss  tensor(0.7532)
Val loss  tensor(1.1408)
Iteration 475000: total loss 0.0377, losses: [0.018974849954247475, 0.018734976649284363], learning rate: 0.0097029900
(2505000,)
(2505000,)
(2505000,)
(2505000,)
(26109114,)
(26109114,)
…
Iteration 490000: total loss 0.0157, losses: [0.007635340094566345, 0.008072946220636368], learning rate: 0.0094148015
Val loss  tensor(1.1205)
Val loss  tensor(1.1957)
Iteration 465000: total loss 0.0409, losses: [0.020507285371422768, 0.020423848181962967], learning rate: 0.0094148015
Iteration 495000: total loss 0.0204, losses: [0.009965001605451107, 0.010469682514667511], learning rate: 0.0093206535
Iteration 470000: total loss 0.0382, losses: [0.018393168225884438, 0.019811255857348442], learning rate: 0.0094148015
Val loss  tensor(1.2268)
Val loss  tensor(1.2418)
FullyConnectedNetworkMod(
  (layers): ModuleList(
    (0): Linear(in_features=4, out_features=256, bias=True)
    (1): ReLU()
    (2): Linear(in_features=256, out_features=256, bias=True)
    (3): ReLU()
    (4): Linear(in_features=256, out_features=128, bias=True)
    (5): SiLU()
    (6): Linear(in_features=128, out_features=128, bias=True)
    (7): SiLU()
    (8): Linear(in_features=128, out_features=2, bias=True)
  )
)
cuda:0
Folder already there
FullyConnectedNetworkMod(
  (layers): ModuleList(
    (0): Linear(in_features=4, out_features=256, bias=True)
    (1): ReLU()
    (2): Linear(in_features=256, out_features=256, bias=True)
    (3): ReLU()
    (4): Linear(in_features=256, out_features=256, bias=True)
    (5): ReLU()
    (6): Linear(in_features=256, out_features=256, bias=True)
    (7): ReLU()
    (8): Linear(in_features=256, out_features=2, bias=True)
  )
)
Iteration 475000: total loss 0.0394, losses: [0.018990784883499146, 0.020407123491168022], learning rate: 0.0094148015
Iteration 480000: total loss 0.0355, losses: [0.01740158535540104, 0.018129942938685417], learning rate: 0.0094148015
Val loss  tensor(1.2183)
Val loss  tensor(1.2230)
(2505000,)
(2505000,)
(2505000,)
(2505000,)
(26109114,)
(26109114,)
…
Iteration 490000: total loss 0.0683, losses: [0.033790480345487595, 0.03449168801307678], learning rate: 0.0095099005
Val loss  tensor(1.2380)
Val loss  tensor(1.2417)
Iteration 355000: total loss 0.0209, losses: [0.01020618062466383, 0.01072615385055542], learning rate: 0.0095099005
Iteration 495000: total loss 0.0786, losses: [0.03911914676427841, 0.03944781422615051], learning rate: 0.0095099005
Iteration 360000: total loss 0.0345, losses: [0.01702437363564968, 0.017478544265031815], learning rate: 0.0095099005
Val loss  tensor(1.1360)
FullyConnectedNetworkMod(
  (layers): ModuleList(
    (0): Linear(in_features=4, out_features=128, bias=True)
    (1): SiLU()
    (2): Linear(in_features=128, out_features=128, bias=True)
    (3): Tanh()
    (4): Linear(in_features=128, out_features=128, bias=True)
    (5): Tanh()
    (6): Linear(in_features=128, out_features=128, bias=True)
    (7): Tanh()
    (8): Linear(in_features=128, out_features=2, bias=True)
  )
)
cuda:0
Folder already there
FullyConnectedNetworkMod(
  (layers): ModuleList(
    (0): Linear(in_features=4, out_features=256, bias=True)
    (1): ReLU()
    (2): Linear(in_features=256, out_features=128, bias=True)
    (3): Tanh()
    (4): Linear(in_features=128, out_features=128, bias=True)
    (5): ELU(alpha=1.0)
    (6): Linear(in_features=128, out_features=128, bias=True)
    (7): ELU(alpha=1.0)
    (8): Linear(in_features=128, out_features=2, bias=True)
  )
)
Val loss  tensor(1.2277)
Iteration 365000: total loss 0.0277, losses: [0.013800161890685558, 0.013873395510017872], learning rate: 0.0095099005
(2505000,)
(2505000,)
(2505000,)
(2505000,)
(26109114,)
(26109114,)
(26109114,)
(26109114,)
Iteration 0: total loss 2.5520, losses: [1.2866524457931519, 1.2653130292892456], learning rate: 0.0100000000
Val loss  tensor(1.2614)
…
Val loss  tensor(1.1138)
Val loss  tensor(1.3606)
Iteration 185000: total loss 0.2104, losses: [0.10519502311944962, 0.1051785945892334], learning rate: 0.0098010000
Iteration 495000: total loss 0.0396, losses: [0.019826287403702736, 0.019820561632514], learning rate: 0.0093206535
Iteration 190000: total loss 0.1892, losses: [0.09433459490537643, 0.09489449858665466], learning rate: 0.0098010000
Val loss  tensor(0.8585)
Val loss  tensor(1.1730)
Iteration 195000: total loss 0.1962, losses: [0.09796897321939468, 0.09824205935001373], learning rate: 0.0098010000
FullyConnectedNetworkMod(
  (layers): ModuleList(
    (0): Linear(in_features=4, out_features=256, bias=True)
    (1): ReLU()
    (2): Linear(in_features=256, out_features=256, bias=True)
    (3): ReLU()
    (4): Linear(in_features=256, out_features=256, bias=True)
    (5): ReLU()
    (6): Linear(in_features=256, out_features=256, bias=True)
    (7): ReLU()
    (8): Linear(in_features=256, out_features=2, bias=True)
  )
)
cuda:0
Folder already there
FullyConnectedNetworkMod(
  (layers): ModuleList(
    (0): Linear(in_features=4, out_features=256, bias=True)
    (1): ReLU()
    (2): Linear(in_features=256, out_features=128, bias=True)
    (3): Tanh()
    (4): Linear(in_features=128, out_features=128, bias=True)
    (5): Tanh()
    (6): Linear(in_features=128, out_features=128, bias=True)
    (7): ELU(alpha=1.0)
    (8): Linear(in_features=128, out_features=2, bias=True)
  )
)
Iteration 200000: total loss 0.1422, losses: [0.07064439356327057, 0.07150749117136002], learning rate: 0.0098010000
Val loss  tensor(0.7021)
Val loss  tensor(1.1092)
Iteration 205000: total loss 0.2349, losses: [0.11775829643011093, 0.11715608090162277], learning rate: 0.0098010000
(2505000,)
(2505000,)
(2505000,)
(2505000,)
(26109114,)
(26109114,)
…
Iteration 490000: total loss 0.0325, losses: [0.01587667129933834, 0.016665687784552574], learning rate: 0.0093206535
Val loss  tensor(1.0089)
Val loss  tensor(1.1588)
Iteration 320000: total loss 0.0242, losses: [0.0120546855032444, 0.01214550994336605], learning rate: 0.0097029900
Val loss  tensor(0.9183)
Val loss  tensor(1.0909)
Iteration 495000: total loss 0.0202, losses: [0.009936006739735603, 0.010305128060281277], learning rate: 0.0093206535
Iteration 325000: total loss 0.0362, losses: [0.018239891156554222, 0.01794365607202053], learning rate: 0.0097029900
FullyConnectedNetworkMod(
  (layers): ModuleList(
    (0): Linear(in_features=4, out_features=256, bias=True)
    (1): ReLU()
    (2): Linear(in_features=256, out_features=128, bias=True)
    (3): SiLU()
    (4): Linear(in_features=128, out_features=128, bias=True)
    (5): SiLU()
    (6): Linear(in_features=128, out_features=128, bias=True)
    (7): ELU(alpha=1.0)
    (8): Linear(in_features=128, out_features=2, bias=True)
  )
)
cuda:0
Folder already there
FullyConnectedNetworkMod(
  (layers): ModuleList(
    (0): Linear(in_features=4, out_features=256, bias=True)
    (1): ReLU()
    (2): Linear(in_features=256, out_features=256, bias=True)
    (3): ReLU()
    (4): Linear(in_features=256, out_features=256, bias=True)
    (5): ReLU()
    (6): Linear(in_features=256, out_features=128, bias=True)
    (7): ELU(alpha=1.0)
    (8): Linear(in_features=128, out_features=2, bias=True)
  )
)
Iteration 330000: total loss 0.0249, losses: [0.012685929425060749, 0.01226118765771389], learning rate: 0.0097029900
Val loss  tensor(1.0188)
Val loss  tensor(1.1238)
Iteration 335000: total loss 0.0167, losses: [0.00819889921694994, 0.008462297730147839], learning rate: 0.0097029900
(2505000,)
(2505000,)
(2505000,)
(2505000,)
(26109114,)
(26109114,)
…
