…
[1716358238.408960] [compute-1-0:892697:0]           ib_md.c:1232 UCX  WARN  IB: ibv_fork_init() was disabled or failed, yet a fork() has been issued.
[1716358238.408956] [compute-1-0:892698:0]           ib_md.c:1232 UCX  WARN  IB: ibv_fork_init() was disabled or failed, yet a fork() has been issued.
[1716358238.408969] [compute-1-0:892698:0]           ib_md.c:1233 UCX  WARN  IB: data corruption might occur when using registered memory.
[1716358238.408972] [compute-1-0:892697:0]           ib_md.c:1233 UCX  WARN  IB: data corruption might occur when using registered memory.
cuda:1
cuda:1
cuda:0
cuda:0
Folder already there
FullyConnectedNetworkMod(
  (layers): ModuleList(
    (0): Linear(in_features=4, out_features=64, bias=True)
    (1): ELU(alpha=1.0)
    (2): Linear(in_features=64, out_features=32, bias=True)
    (3): ELU(alpha=1.0)
    (4): Linear(in_features=32, out_features=2, bias=True)
  )
)
Folder already there
FullyConnectedNetworkMod(
  (layers): ModuleList(
    (0): Linear(in_features=4, out_features=32, bias=True)
    (1): ELU(alpha=1.0)
    (2): Linear(in_features=32, out_features=32, bias=True)
    (3): ELU(alpha=1.0)
    (4): Linear(in_features=32, out_features=2, bias=True)
  )
)
Folder already there
FullyConnectedNetworkMod(
  (layers): ModuleList(
    (0): Linear(in_features=4, out_features=64, bias=True)
    (1): ELU(alpha=1.0)
    (2): Linear(in_features=64, out_features=32, bias=True)
    (3): ELU(alpha=1.0)
    (4): Linear(in_features=32, out_features=2, bias=True)
  )
)
Folder already there
FullyConnectedNetworkMod(
  (layers): ModuleList(
    (0): Linear(in_features=4, out_features=64, bias=True)
    (1): ELU(alpha=1.0)
    (2): Linear(in_features=64, out_features=64, bias=True)
    (3): ELU(alpha=1.0)
    (4): Linear(in_features=64, out_features=2, bias=True)
  )
)
(6879732,)
(6879732,)
(6879732,)
(6879732,)
(6879732,)
(6879732,)
(6879732,)
(6879732,)
(6879732,)
(6879732,)
(6879732,)
(6879732,)
(6879732,)
(6879732,)
(6879732,)
(6879732,)
Iteration 0: total loss 2.6536, losses: [2.653571605682373], learning rate: 0.0100000000
Iteration 0: total loss 2.4568, losses: [2.4568257331848145], learning rate: 0.0100000000
…
Iteration 855000: total loss 0.0936, losses: [0.09364095330238342], learning rate: 0.0094148015
Iteration 855000: total loss 0.0995, losses: [0.0995243713259697], learning rate: 0.0097029900
Iteration 995000: total loss 0.1149, losses: [0.11485937982797623], learning rate: 0.0093206535
Iteration 995000: total loss 0.0843, losses: [0.08427821844816208], learning rate: 0.0091351725
Iteration 860000: total loss 0.0823, losses: [0.08233994245529175], learning rate: 0.0094148015
Iteration 860000: total loss 0.0993, losses: [0.09934376180171967], learning rate: 0.0097029900
Val loss  tensor(1.3848)
Val loss  tensor(0.9325)
FullyConnectedNetworkMod(
  (layers): ModuleList(
    (0): Linear(in_features=4, out_features=64, bias=True)
    (1): ELU(alpha=1.0)
    (2): Linear(in_features=64, out_features=64, bias=True)
    (3): ELU(alpha=1.0)
    (4): Linear(in_features=64, out_features=2, bias=True)
  )
)
cuda:0
Folder already there
FullyConnectedNetworkMod(
  (layers): ModuleList(
    (0): Linear(in_features=4, out_features=32, bias=True)
    (1): ELU(alpha=1.0)
    (2): Linear(in_features=32, out_features=32, bias=True)
    (3): SiLU()
    (4): Linear(in_features=32, out_features=2, bias=True)
  )
)
FullyConnectedNetworkMod(
  (layers): ModuleList(
    (0): Linear(in_features=4, out_features=32, bias=True)
    (1): ELU(alpha=1.0)
    (2): Linear(in_features=32, out_features=32, bias=True)
    (3): ELU(alpha=1.0)
    (4): Linear(in_features=32, out_features=2, bias=True)
  )
)
cuda:0
Folder already there
FullyConnectedNetworkMod(
  (layers): ModuleList(
    (0): Linear(in_features=4, out_features=32, bias=True)
    (1): ELU(alpha=1.0)
    (2): Linear(in_features=32, out_features=64, bias=True)
    (3): SiLU()
    (4): Linear(in_features=64, out_features=2, bias=True)
  )
)
(6879732,)
(6879732,)
(6879732,)
(6879732,)
(6879732,)
(6879732,)
(6879732,)
(6879732,)
Iteration 0: total loss 2.2422, losses: [2.2422146797180176], learning rate: 0.0100000000
Iteration 0: total loss 2.5928, losses: [2.5927813053131104], learning rate: 0.0100000000
Val loss  tensor(1.3427)
Val loss  tensor(1.3373)
Iteration 865000: total loss 0.1114, losses: [0.11142491549253464], learning rate: 0.0094148015
…
Iteration 995000: total loss 0.0724, losses: [0.07243700325489044], learning rate: 0.0093206535
Iteration 995000: total loss 0.0884, losses: [0.08844108134508133], learning rate: 0.0096059601
Iteration 155000: total loss 0.0768, losses: [0.07679958641529083], learning rate: 0.0099000000
Iteration 155000: total loss 0.0884, losses: [0.08840858936309814], learning rate: 0.0100000000
Iteration 160000: total loss 0.0788, losses: [0.0787770003080368], learning rate: 0.0099000000
Iteration 160000: total loss 0.0983, losses: [0.09829750657081604], learning rate: 0.0100000000
Val loss  tensor(0.7987)
Val loss  tensor(0.9730)
FullyConnectedNetworkMod(
  (layers): ModuleList(
    (0): Linear(in_features=4, out_features=64, bias=True)
    (1): ELU(alpha=1.0)
    (2): Linear(in_features=64, out_features=32, bias=True)
    (3): ELU(alpha=1.0)
    (4): Linear(in_features=32, out_features=2, bias=True)
  )
)
cuda:1
Folder already there
FullyConnectedNetworkMod(
  (layers): ModuleList(
    (0): Linear(in_features=4, out_features=64, bias=True)
    (1): ELU(alpha=1.0)
    (2): Linear(in_features=64, out_features=32, bias=True)
    (3): SiLU()
    (4): Linear(in_features=32, out_features=2, bias=True)
  )
)
FullyConnectedNetworkMod(
  (layers): ModuleList(
    (0): Linear(in_features=4, out_features=64, bias=True)
    (1): ELU(alpha=1.0)
    (2): Linear(in_features=64, out_features=32, bias=True)
    (3): ELU(alpha=1.0)
    (4): Linear(in_features=32, out_features=2, bias=True)
  )
)
cuda:1
Folder already there
FullyConnectedNetworkMod(
  (layers): ModuleList(
    (0): Linear(in_features=4, out_features=32, bias=True)
    (1): ELU(alpha=1.0)
    (2): Linear(in_features=32, out_features=64, bias=True)
    (3): SiLU()
    (4): Linear(in_features=64, out_features=2, bias=True)
  )
)
(6879732,)
(6879732,)
(6879732,)
(6879732,)
(6879732,)
(6879732,)
(6879732,)
(6879732,)
Iteration 0: total loss 2.7339, losses: [2.7338786125183105], learning rate: 0.0100000000
Iteration 0: total loss 2.7071, losses: [2.707146167755127], learning rate: 0.0100000000
Val loss  tensor(1.3742)
Val loss  tensor(1.3345)
Iteration 165000: total loss 0.0781, losses: [0.07806415110826492], learning rate: 0.0099000000
…
Iteration 770000: total loss 0.0555, losses: [0.05547711253166199], learning rate: 0.0096059601
Iteration 770000: total loss 0.0528, losses: [0.05279117077589035], learning rate: 0.0096059601
Val loss  tensor(0.6754)
Val loss  tensor(0.8373)
Iteration 995000: total loss nan, losses: [nan], learning rate: 0.0093206535
Iteration 995000: total loss 0.0491, losses: [0.049120791256427765], learning rate: 0.0093206535
Iteration 775000: total loss 0.0576, losses: [0.05763369798660278], learning rate: 0.0096059601
Iteration 775000: total loss 0.0574, losses: [0.05735998600721359], learning rate: 0.0095099005
FullyConnectedNetworkMod(
  (layers): ModuleList(
    (0): Linear(in_features=4, out_features=32, bias=True)
    (1): ELU(alpha=1.0)
    (2): Linear(in_features=32, out_features=32, bias=True)
    (3): SiLU()
    (4): Linear(in_features=32, out_features=2, bias=True)
  )
)
FullyConnectedNetworkMod(
  (layers): ModuleList(
    (0): Linear(in_features=4, out_features=32, bias=True)
    (1): ELU(alpha=1.0)
    (2): Linear(in_features=32, out_features=64, bias=True)
    (3): SiLU()
    (4): Linear(in_features=64, out_features=2, bias=True)
  )
)
cuda:0
cuda:0
Folder already there
FullyConnectedNetworkMod(
  (layers): ModuleList(
    (0): Linear(in_features=4, out_features=32, bias=True)
    (1): SiLU()
    (2): Linear(in_features=32, out_features=32, bias=True)
    (3): ELU(alpha=1.0)
    (4): Linear(in_features=32, out_features=2, bias=True)
  )
)
Folder already there
FullyConnectedNetworkMod(
  (layers): ModuleList(
    (0): Linear(in_features=4, out_features=64, bias=True)
    (1): SiLU()
    (2): Linear(in_features=64, out_features=32, bias=True)
    (3): ELU(alpha=1.0)
    (4): Linear(in_features=32, out_features=2, bias=True)
  )
)
(6879732,)
(6879732,)
(6879732,)
(6879732,)
(6879732,)
(6879732,)
(6879732,)
(6879732,)
Iteration 0: total loss 2.4240, losses: [2.424030303955078], learning rate: 0.0100000000
Iteration 0: total loss 2.4916, losses: [2.4915521144866943], learning rate: 0.0100000000
Val loss  tensor(1.2542)
Val loss  tensor(1.3919)
Iteration 780000: total loss 0.0482, losses: [0.048244260251522064], learning rate: 0.0096059601
…
Iteration 995000: total loss 0.0532, losses: [0.05323862284421921], learning rate: 0.0095099005
Iteration 995000: total loss 0.0599, losses: [0.05986882746219635], learning rate: 0.0093206535
Iteration 200000: total loss 0.0605, losses: [0.0604814849793911], learning rate: 0.0099000000
Iteration 200000: total loss 0.1086, losses: [0.10862934589385986], learning rate: 0.0099000000
Val loss  tensor(1.1849)
Val loss  tensor(0.7945)
Iteration 205000: total loss 0.0668, losses: [0.06682335585355759], learning rate: 0.0099000000
Iteration 205000: total loss 0.0918, losses: [0.09184287488460541], learning rate: 0.0099000000
FullyConnectedNetworkMod(
  (layers): ModuleList(
    (0): Linear(in_features=4, out_features=32, bias=True)
    (1): ELU(alpha=1.0)
    (2): Linear(in_features=32, out_features=64, bias=True)
    (3): SiLU()
    (4): Linear(in_features=64, out_features=2, bias=True)
  )
)
cuda:1
Folder already there
FullyConnectedNetworkMod(
  (layers): ModuleList(
    (0): Linear(in_features=4, out_features=32, bias=True)
    (1): SiLU()
    (2): Linear(in_features=32, out_features=32, bias=True)
    (3): ELU(alpha=1.0)
    (4): Linear(in_features=32, out_features=2, bias=True)
  )
)
FullyConnectedNetworkMod(
  (layers): ModuleList(
    (0): Linear(in_features=4, out_features=64, bias=True)
    (1): ELU(alpha=1.0)
    (2): Linear(in_features=64, out_features=32, bias=True)
    (3): SiLU()
    (4): Linear(in_features=32, out_features=2, bias=True)
  )
)
cuda:1
Folder already there
FullyConnectedNetworkMod(
  (layers): ModuleList(
    (0): Linear(in_features=4, out_features=64, bias=True)
    (1): SiLU()
    (2): Linear(in_features=64, out_features=32, bias=True)
    (3): ELU(alpha=1.0)
    (4): Linear(in_features=32, out_features=2, bias=True)
  )
)
(6879732,)
(6879732,)
(6879732,)
(6879732,)
(6879732,)
(6879732,)
(6879732,)
(6879732,)
Iteration 0: total loss 2.4937, losses: [2.4936575889587402], learning rate: 0.0100000000
Iteration 0: total loss 2.7570, losses: [2.7570223808288574], learning rate: 0.0100000000
Val loss  tensor(1.3955)
Val loss  tensor(1.4778)
Iteration 210000: total loss 0.0492, losses: [0.04922157898545265], learning rate: 0.0099000000
…
Iteration 995000: total loss 0.0733, losses: [0.07332170754671097], learning rate: 0.0093206535
Iteration 995000: total loss 0.0499, losses: [0.04990265518426895], learning rate: 0.0094148015
Iteration 790000: total loss 0.0578, losses: [0.05784403532743454], learning rate: 0.0096059601
Iteration 790000: total loss 0.0462, losses: [0.04616192728281021], learning rate: 0.0097029900
Val loss  tensor(0.9171)
Val loss  tensor(1.0677)
Iteration 795000: total loss 0.0539, losses: [0.05390939861536026], learning rate: 0.0096059601
Iteration 795000: total loss 0.0372, losses: [0.037233658134937286], learning rate: 0.0097029900
FullyConnectedNetworkMod(
  (layers): ModuleList(
    (0): Linear(in_features=4, out_features=64, bias=True)
    (1): SiLU()
    (2): Linear(in_features=64, out_features=32, bias=True)
    (3): ELU(alpha=1.0)
    (4): Linear(in_features=32, out_features=2, bias=True)
  )
)
FullyConnectedNetworkMod(
  (layers): ModuleList(
    (0): Linear(in_features=4, out_features=32, bias=True)
    (1): SiLU()
    (2): Linear(in_features=32, out_features=32, bias=True)
    (3): ELU(alpha=1.0)
    (4): Linear(in_features=32, out_features=2, bias=True)
  )
)
cuda:0
cuda:0
Folder already there
FullyConnectedNetworkMod(
  (layers): ModuleList(
    (0): Linear(in_features=4, out_features=64, bias=True)
    (1): SiLU()
    (2): Linear(in_features=64, out_features=64, bias=True)
    (3): SiLU()
    (4): Linear(in_features=64, out_features=2, bias=True)
  )
)
Folder already there
FullyConnectedNetworkMod(
  (layers): ModuleList(
    (0): Linear(in_features=4, out_features=32, bias=True)
    (1): SiLU()
    (2): Linear(in_features=32, out_features=32, bias=True)
    (3): SiLU()
    (4): Linear(in_features=32, out_features=2, bias=True)
  )
)
(6879732,)
(6879732,)
(6879732,)
(6879732,)
(6879732,)
(6879732,)
(6879732,)
(6879732,)
Iteration 0: total loss 2.6553, losses: [2.655341148376465], learning rate: 0.0100000000
Iteration 0: total loss 2.3867, losses: [2.3867197036743164], learning rate: 0.0100000000
Val loss  tensor(1.3502)
Val loss  tensor(1.4503)
Iteration 800000: total loss 0.0572, losses: [0.057186245918273926], learning rate: 0.0096059601
…
Iteration 995000: total loss 0.0411, losses: [0.04107695817947388], learning rate: 0.0094148015
Iteration 995000: total loss 0.0411, losses: [0.04106058180332184], learning rate: 0.0096059601
Iteration 230000: total loss 0.0498, losses: [0.04982345551252365], learning rate: 0.0100000000
Iteration 230000: total loss 0.0583, losses: [0.05828462541103363], learning rate: 0.0100000000
Val loss  tensor(0.8451)
Val loss  tensor(1.0287)
Iteration 235000: total loss 0.0524, losses: [0.05241280794143677], learning rate: 0.0100000000
Iteration 235000: total loss 0.0614, losses: [0.061442211270332336], learning rate: 0.0100000000
FullyConnectedNetworkMod(
  (layers): ModuleList(
    (0): Linear(in_features=4, out_features=32, bias=True)
    (1): SiLU()
    (2): Linear(in_features=32, out_features=32, bias=True)
    (3): ELU(alpha=1.0)
    (4): Linear(in_features=32, out_features=2, bias=True)
  )
)
cuda:1
Folder already there
FullyConnectedNetworkMod(
  (layers): ModuleList(
    (0): Linear(in_features=4, out_features=32, bias=True)
    (1): SiLU()
    (2): Linear(in_features=32, out_features=32, bias=True)
    (3): SiLU()
    (4): Linear(in_features=32, out_features=2, bias=True)
  )
)
FullyConnectedNetworkMod(
  (layers): ModuleList(
    (0): Linear(in_features=4, out_features=64, bias=True)
    (1): SiLU()
    (2): Linear(in_features=64, out_features=32, bias=True)
    (3): ELU(alpha=1.0)
    (4): Linear(in_features=32, out_features=2, bias=True)
  )
)
cuda:1
Folder already there
FullyConnectedNetworkMod(
  (layers): ModuleList(
    (0): Linear(in_features=4, out_features=32, bias=True)
    (1): SiLU()
    (2): Linear(in_features=32, out_features=64, bias=True)
    (3): SiLU()
    (4): Linear(in_features=64, out_features=2, bias=True)
  )
)
(6879732,)
(6879732,)
(6879732,)
(6879732,)
(6879732,)
(6879732,)
(6879732,)
(6879732,)
Iteration 0: total loss 2.4979, losses: [2.4978668689727783], learning rate: 0.0100000000
Iteration 0: total loss 2.6806, losses: [2.6805970668792725], learning rate: 0.0100000000
Val loss  tensor(1.5045)
Val loss  tensor(1.5224)
Iteration 240000: total loss 0.0452, losses: [0.045171745121479034], learning rate: 0.0100000000
…
Iteration 770000: total loss 0.0452, losses: [0.04523590952157974], learning rate: 0.0095099005
Iteration 770000: total loss 0.0328, losses: [0.03284361958503723], learning rate: 0.0096059601
Val loss  tensor(0.8962)
Val loss  tensor(0.8996)
Iteration 990000: total loss 0.0307, losses: [0.03065393678843975], learning rate: 0.0096059601
Val loss  tensor(0.6091)
Iteration 775000: total loss 0.0370, losses: [0.03704363852739334], learning rate: 0.0096059601
Iteration 775000: total loss 0.0421, losses: [0.042116984724998474], learning rate: 0.0095099005
FullyConnectedNetworkMod(
  (layers): ModuleList(
    (0): Linear(in_features=4, out_features=32, bias=True)
    (1): SiLU()
    (2): Linear(in_features=32, out_features=32, bias=True)
    (3): SiLU()
    (4): Linear(in_features=32, out_features=2, bias=True)
  )
)
Iteration 780000: total loss 0.0477, losses: [0.04771757870912552], learning rate: 0.0095099005
Iteration 780000: total loss 0.0295, losses: [0.029464855790138245], learning rate: 0.0096059601
Val loss  tensor(0.8429)
Val loss  tensor(0.8787)
Iteration 995000: total loss 0.0273, losses: [0.027326636016368866], learning rate: 0.0096059601
Iteration 785000: total loss 0.0473, losses: [0.047291915863752365], learning rate: 0.0096059601
Iteration 785000: total loss 0.0440, losses: [0.04403802007436752], learning rate: 0.0095099005
FullyConnectedNetworkMod(
  (layers): ModuleList(
    (0): Linear(in_features=4, out_features=64, bias=True)
    (1): SiLU()
    (2): Linear(in_features=64, out_features=64, bias=True)
    (3): SiLU()
    (4): Linear(in_features=64, out_features=2, bias=True)
  )
)
Iteration 790000: total loss 0.0458, losses: [0.04575127363204956], learning rate: 0.0096059601
Iteration 790000: total loss 0.0522, losses: [0.05222673714160919], learning rate: 0.0095099005
Val loss  tensor(0.8177)
Val loss  tensor(0.9006)
Iteration 795000: total loss 0.0387, losses: [0.03868432715535164], learning rate: 0.0096059601
Iteration 795000: total loss 0.0457, losses: [0.045715805143117905], learning rate: 0.0095099005
…
Iteration 985000: total loss 0.0399, losses: [0.03990183770656586], learning rate: 0.0093206535
Iteration 985000: total loss 0.0370, losses: [0.037014514207839966], learning rate: 0.0094148015
Iteration 990000: total loss 0.0490, losses: [0.04901228845119476], learning rate: 0.0093206535
Iteration 990000: total loss 0.0364, losses: [0.036439456045627594], learning rate: 0.0094148015
Val loss  tensor(0.8639)
Val loss  tensor(0.8641)
Iteration 995000: total loss 0.0453, losses: [0.04526647552847862], learning rate: 0.0093206535
Iteration 995000: total loss 0.0329, losses: [0.03287268429994583], learning rate: 0.0094148015
FullyConnectedNetworkMod(
  (layers): ModuleList(
    (0): Linear(in_features=4, out_features=32, bias=True)
    (1): SiLU()
    (2): Linear(in_features=32, out_features=32, bias=True)
    (3): SiLU()
    (4): Linear(in_features=32, out_features=2, bias=True)
  )
)
FullyConnectedNetworkMod(
  (layers): ModuleList(
    (0): Linear(in_features=4, out_features=32, bias=True)
    (1): SiLU()
    (2): Linear(in_features=32, out_features=64, bias=True)
    (3): SiLU()
    (4): Linear(in_features=64, out_features=2, bias=True)
  )
)
